heatguard.tflite (tflite, 4632 bytes, 5 tensors)

sequential/normalization/truediv;sequential/normalization/Sqrt f4 [1, 7]
000000 7c 97 33 3e a3 76 03 3f 02 c8 f5 40 5a db 49 3f
       0.17538255 0.513529 7.680665 0.7885033
000010 37 aa 13 3d 01 57 8d 3d 2f d1 6f 40
       0.036051 0.0690136 3.7471426

Const f4 [1, 7]
000000 36 39 fa 41 82 31 13 42 96 2b 04 3e 4a cc a6 41
       31.277935 36.798347 0.12907252 20.84975
000010 71 d7 f0 42 61 84 24 42 4a 0e 9e 3d
       120.420784 41.129276 0.07717569

sequential/dense/BiasAdd/ReadVariableOp f4 [64]
000000 12 67 9b bd b8 4f b6 3e 57 89 4b 3e cf e1 d8 bd
       -0.075880185 0.35607696 0.1987661 -0.105899446
000010 79 b7 6e 3e 42 a5 6f 3e 5f e4 51 bd df 52 ec bd
       0.23312177 0.23402885 -0.051243182 -0.11539244
000020 36 71 42 be dd 13 a9 bd f7 bb 64 3e 14 4b 80 3e
       -0.18988499 -0.08255742 0.22337328 0.2505728
000030 2b 4c 8b bd 9a 84 71 3e 99 1f e1 bd fb 39 d2 3e
       -0.06801637 0.2358574 -0.10992355 0.4105986
000040 70 29 78 3e a2 74 05 be 4f a9 ba bd 31 ea 78 3e
       0.24234557 -0.13032773 -0.09114324 0.24308087
000050 e6 d2 90 3e 6b 3d b1 bd 4a e7 12 be 62 f2 79 3e
       0.28285903 -0.08654293 -0.14346042 0.24408868
000060 c5 75 b8 bd c2 50 6b 3e c7 07 a6 bd 1c 89 96 3e
       -0.09006838 0.22980025 -0.08106952 0.2940148
000070 10 2a aa 3e 94 c2 e6 bd 2d d8 14 3e 86 b1 3e 3e
       0.33235216 -0.112675816 0.1453559 0.18622407
000080 a2 b1 85 bd 23 77 8e 3e c7 23 c7 3e 03 fc 26 3e
       -0.065280214 0.2782527 0.38894483 0.16307072
000090 8f bf 57 3e 8d 8c 04 bd 25 ba 66 3e 42 eb a1 3e
       0.21069168 -0.032360602 0.22531946 0.316248
0000a0 99 93 cf bd 0b 58 88 3e e3 c1 a7 bd de 21 fd bd
       -0.10135574 0.2662967 -0.08191278 -0.12359975
0000b0 e6 09 29 bc 85 ca 85 3e ee 29 81 3e 18 6b b5 bd
       -0.010317301 0.26131073 0.25227302 -0.08858317
0000c0 5a 73 a1 3e 73 27 f6 bd 63 9c 9d 3e 5d e5 6b 3e
       0.3153332 -0.12019243 0.30783376 0.23036714
0000d0 dc e5 f6 bd 9c ff 0a 3e 25 43 62 3e e0 6e 8f 3e
       -0.12055561 0.1357407 0.22095926 0.28014278
0000e0 3c ce 62 3e 17 c3 5f 3e 10 4c 82 3e f7 b4 96 bd
       0.22148985 0.21851765 0.25448656 -0.07358735
0000f0 e9 45 ab bd c0 f4 2d be fb 8c 5a 3e 3b 72 8d 3e
       -0.08362944 -0.16987896 0.21342842 0.27626213

sequential/dense/MatMul f4 [64, 7]
000000 00 b3 d5 3e 01 11 85 3e cc 1d 3b 3e 8d 30 59 bc
       0.4173813 0.25989535 0.18273085 -0.013256204
000010 12 5e 83 be 4a 56 52 3e 32 dc e5 3d 8d e7 2c be
       -0.25657707 0.20540729 0.112236395 -0.16885205
000020 d0 55 b9 be a4 99 0a be 44 e9 b7 bc c9 e8 c6 be
       -0.36198282 -0.13535172 -0.022450097 -0.38849476
000030 ba b9 cc 3d 46 bf 3f bd cd 88 74 3e 86 4b fc be
       0.09996362 -0.046813272 0.2388031 -0.4927637
000040 1c 98 06 bf f9 d5 52 3e 25 78 cf 3e 24 48 07 3d
       -0.5257585 0.20589437 0.4052135 0.033027783
000050 fc 4d e3 be 00 02 2d 3e a4 c3 d9 bc 1d 44 3e 3e
       -0.44395435 0.16895294 -0.026582547 0.1858067
000060 6f 53 c2 3d 5a c0 45 3e ab e7 b2 bd 14 2b 1a 3d
       0.0948857 0.19311658 -0.087355934 0.03763874
000070 f1 97 d3 bd 40 42 8f be a1 b0 06 3e f8 4d d3 be
       -0.10331715 -0.27980232 0.13153316 -0.41270423
000080 b3 12 9b be b0 83 15 be 38 db 7e bc ae 48 da 3d
       -0.30287704 -0.14601016 -0.0155551955 0.10658394
000090 d8 ba 85 3d 92 7f 6f be d1 c2 ad be 4e 60 ae 3e
       0.06529778 -0.23388508 -0.33937696 0.3405785
0000a0 18 fc 06 3c 41 71 17 be 6d e5 8e 3b 13 53 04 3f
       0.008238815 -0.14789297 0.004360846 0.5168926
0000b0 e3 f9 47 3b fb 9b ee 3d 4d e6 32 3e be 6f 74 be
       0.0030513934 0.11650845 0.17470665 -0.23870751
0000c0 09 d1 13 be b6 54 01 3e e6 8b 37 3e 8d d7 97 3e
       -0.1443521 0.12629971 0.17924461 0.2965664
0000d0 30 6d 19 be 81 ee 8d bb af 82 d6 3e e6 5e 4f 3d
       -0.14983058 -0.0043314104 0.4189658 0.05062761
0000e0 a2 f1 a2 3e 90 5b ad 3e b9 6c 78 3e 25 7d ce bd
       0.31824976 0.3385892 0.24260224 -0.10082463
0000f0 2c 25 a7 3d 3a 67 01 3f d6 f3 e6 3d 55 36 17 3e
       0.08161387 0.50548136 0.11276977 0.1476682
000100 61 bd 1c be 89 f5 15 3e 56 a1 fa bd 6e f9 14 be
       -0.15306617 0.14644445 -0.12237804 -0.14548275
000110 5a e9 0e bd 8e 2b b3 3d aa de 5b 3d 45 ca 6c be
       -0.03489051 0.08748542 0.053679146 -0.23124035
000120 84 20 a0 bc aa 7e 80 3e 59 bb 5e 3d 73 98 87 bd
       -0.019546755 0.25096637 0.054377887 -0.06620874
000130 05 b3 5c bd b1 3f 5a be ab 42 88 be af d5 12 3e
       -0.053881664 -0.21313359 -0.26613364 0.14339326
000140 fe 6c 4a 3e eb e2 fb 3d b7 63 6f be 74 b0 b0 3d
       0.1976814 0.122991405 -0.23377882 0.08627406
000150 b8 eb 35 be 2e 00 28 3e cd ae 17 be 63 3b a8 bd
       -0.17765701 0.16406319 -0.14812775 -0.08214452
000160 d8 05 90 bd 5b 05 86 3e 24 7d c4 3d 05 b5 96 be
       -0.070323646 0.2617596 0.09594181 -0.29434982
000170 fc f5 4a be 6f d6 18 bf 29 7b 97 bd 59 3c cb 3d
       -0.19820398 -0.597022 -0.07396538 0.0992362
000180 83 56 be bd 37 cf f8 bc 4f 1d b3 3e 1f ce 09 3f
       -0.092938446 -0.030372245 0.34983298 0.5383014
000190 06 31 5a 3e 55 d4 96 bd 8d de 3b 3d c2 ac a4 3e
       0.21307763 -0.07364718 0.045866538 0.32163054
0001a0 f8 82 0a 3e 33 87 c2 be 18 cf 8e be 4c 0b 87 3d
       0.13526523 -0.37993774 -0.27892375 0.065939516
0001b0 8f 52 3b be 2e b9 40 3e cc 1e 9f be a4 6f 5d 3e
       -0.18293212 0.1882064 -0.31078184 0.21624619
0001c0 e2 6d b5 be 57 a4 4f be 88 f4 63 bd 1d a6 a0 be
       -0.35435396 -0.20277534 -0.055653125 -0.31376734
0001d0 d9 37 a7 3e 07 b3 50 3e 89 3d 83 bc d0 fe 2c 3c
       0.32659796 0.20380794 -0.016020553 0.010558799
0001e0 96 2f c8 bd 4b ff 9d 3e 3e 1f 95 3c c0 96 4d 3e
       -0.09774701 0.30858836 0.018203374 0.20077038
0001f0 42 88 fb bd ad 98 ac bd dd d7 7b 3e 4b 06 d6 3e
       -0.122818485 -0.08427558 0.24594064 0.41801676
000200 56 7d 88 be a6 28 a2 bc aa 99 13 be cf e7 cd 3c
       -0.26658124 -0.019794773 -0.14414087 0.025134949
000210 8b a9 03 3e 21 05 78 3d d4 83 df be f4 3e 09 3d
       0.12857644 0.060551766 -0.43655264 0.033507302
000220 87 d4 00 be 1d 3e 5d 3e 33 8c 46 3d c2 d8 d7 be
       -0.12581073 0.21605726 0.04847355 -0.4215756
000230 b4 0f d1 be ca 76 cf be 95 25 3b be 94 19 8b be
       -0.40832293 -0.40520316 -0.18276055 -0.27167952
000240 01 db 51 3d b6 d2 66 3e 2d 97 e5 be 10 d7 00 be
       0.05123425 0.22541317 -0.448419 -0.1258204
000250 3c cd ec 3e b3 0d 9e bd 99 77 4f 3d 2a 8c 6d 3e
       0.4625033 -0.07717457 0.050651167 0.23198
000260 57 c1 fd 3c 84 52 09 3c f7 f4 ac bc 85 95 c0 bd
       0.03097598 0.00838149 -0.021112902 -0.094035186
000270 e6 09 a5 3e a2 2a 9f 3c 04 5b 09 3e 38 f4 87 bd
       0.32234114 0.019429509 0.13413626 -0.06638378
000280 99 6f 80 bd 48 4b 4b 3e 61 e6 eb bd d8 a6 e0 bd
       -0.062712856 0.19852936 -0.11518551 -0.10969323
000290 a4 a8 95 be 39 38 81 bb f0 99 40 be c8 44 f1 bd
       -0.29230225 -0.00394347 -0.18808722 -0.11780697
0002a0 14 42 6d bd 11 e1 0b 3c ed b6 2e 3d be 5f 10 bd
       -0.057924345 0.008537547 0.04265492 -0.035247557
0002b0 81 b9 17 3e b3 fb 42 be 51 20 60 3e 78 63 92 3e
       0.14816858 -0.19041328 0.21887328 0.28591514
0002c0 37 dc ec be a2 07 0c bf b5 05 5d 3e c0 4a ad 3e
       -0.4626176 -0.54699147 0.21584208 0.33846092
0002d0 13 18 47 bd 05 c8 b7 bd b5 13 ef 3d c2 d3 af bd
       -0.048606943 -0.089736976 0.11673681 -0.085853115
0002e0 e9 30 8e 3e 80 46 5f be e7 a8 cc 3d 97 69 2f be
       0.2777169 -0.21804237 0.09993153 -0.17130123
0002f0 08 5b ab bd 11 e2 92 be 0e ec f8 be c7 68 54 bd
       -0.08366972 -0.286881 -0.48617595 -0.051857736
000300 66 2b 1a be 3d c7 ac bd fd a8 0e bd 16 ba 2b 3e
       -0.15055618 -0.08436439 -0.03482913 0.16770205
000310 84 fd 37 3d 25 60 e1 be 81 b5 3b bd 11 d0 cc 3e
       0.044919506 -0.44018665 -0.045827392 0.40002492
000320 ff 2d a3 bc 5c bf dc 3d 97 cf 0d bf d3 6c ff 3b
       -0.019919394 0.107786864 -0.5539488 0.0077949553
000330 23 02 46 3e 9e 8a 12 3e ac e8 49 3e dd e3 6c bd
       0.19336753 0.14310691 0.19717664 -0.057834495
000340 32 b8 76 3e ac a0 cf bd ad 08 c6 bd 2d 89 f4 bd
       0.24093702 -0.101380676 -0.096696235 -0.11940227
000350 17 c8 f5 3c 52 45 a5 3e 82 1d 92 3d 8a 6d 4b be
       0.030002637 0.3227945 0.071345344 -0.19866005
000360 fc 31 70 3e d7 89 83 bd db 8b 95 be 5e d3 af be
       0.23456568 -0.06422775 -0.29208264 -0.34340948
000370 d2 e1 25 3e 5d 07 52 be 2d 02 4b be ed 89 b8 be
       0.16199425 -0.20510621 -0.19825049 -0.3604273
000380 2c 69 95 3e 65 71 07 3f ef c0 a6 3e b8 08 1e be
       0.29181802 0.529074 0.32569072 -0.15433013
000390 15 fa ce bc 6c b3 d8 bd dd f2 9c bc 1d 9a 0d bd
       -0.025265733 -0.10581097 -0.019158775 -0.034570802
0003a0 56 eb 2a be ca 50 9d be 15 27 61 3e 38 da 01 3e
       -0.16691336 -0.307257 0.21987565 0.126809
0003b0 1a 32 2d 3e 39 61 9d be e5 7e a2 be 86 76 d7 be
       0.16913643 -0.30738238 -0.31737438 -0.42082614
0003c0 45 0c 10 3e b8 45 26 be 97 44 aa be ea 9f 95 3d
       0.1406718 -0.16237533 -0.33255455 0.07305892
0003d0 9b 8c 26 bf da 81 84 bd 22 ee 4c bd 86 a1 83 be
       -0.65058297 -0.0647008 -0.05003179 -0.2570917
0003e0 0e 43 d2 3e 20 ff 94 3e 58 2c 2c be 11 2b 13 bd
       0.41066784 0.29100895 -0.16813791 -0.035929743
0003f0 b5 af d2 be 3d 54 cc be ec 3f cd be b7 83 31 3e
       -0.4114968 -0.3990802 -0.4008783 0.17335401

sequential/dense_1/MatMul f4 [1, 64]
000000 47 07 ce 3e 28 1b 89 be c2 9e b1 be 9e 76 2c 3e
       0.40239927 -0.2677853 -0.34691435 0.16842124
000010 e7 91 a5 be cf ad a4 be b6 86 67 3e 99 f3 c0 3e
       -0.32337877 -0.32163855 0.22609982 0.3768585
000020 b7 5b a3 3e 73 ea 83 3e 0d 99 a2 be 09 df 8f be
       0.3190591 0.25764808 -0.31757393 -0.2809985
000030 2f ca 5f 3d 52 b7 83 be 6c e4 b7 3e 5c d6 69 be
       0.054636177 -0.257258 0.3591646 -0.22835678
000040 75 cd df be 4f 30 8e 3e b3 65 b7 3e ca 3e d2 be
       -0.4371144 0.27771232 0.35819778 -0.4106353
000050 38 a4 aa be e4 46 94 3e db 64 98 3e f9 31 b7 be
       -0.33328414 0.28960335 0.29764447 -0.35780314
000060 a4 27 ea 3d 35 56 b6 be cf f0 6f 3d 82 57 b3 be
       0.11433342 -0.35612646 0.058579262 -0.350277
000070 53 31 89 be e2 4a 95 3d 66 b0 24 be 53 ff 8a be
       -0.26795444 0.072896734 -0.16082916 -0.27147922
000080 31 87 c9 3e 27 2b fb be 83 b2 6b be b5 b6 93 be
       0.39360955 -0.4905636 -0.23017316 -0.28850332
000090 4b ff 8a be af bd 55 bc 3a bc 4c be 6f 46 5f be
       -0.27147898 -0.013045712 -0.19993678 -0.21804212
0000a0 35 a8 d7 3d 07 8d e1 be 31 f8 7c 3e 45 ef 05 3f
       0.1053013 -0.44052908 0.24704053 0.5231822
0000b0 f7 64 82 3e 07 dd a7 be 26 45 fa be 40 1c 97 3e
       0.25467655 -0.32785818 -0.4888088 0.2951374
0000c0 11 63 c7 be 72 85 34 3e 8e 8d 9e be d1 e2 af be
       -0.3894277 0.1762903 -0.30967373 -0.34352735
0000d0 b2 4f 99 3e df 78 bc be 97 c9 a4 be 5d f4 bc be
       0.29943615 -0.36810967 -0.3218505 -0.36905184
0000e0 f0 ff a6 be 5b 06 cf be b6 19 e9 be 0c d6 5e 3e
       -0.3261714 -0.40434536 -0.45527428 0.2176134
0000f0 24 d5 58 3e 43 df db 3e 1f b9 01 bf 9f c3 8a be
       0.21175057 0.42943773 -0.506731 -0.27102372
