heatguard.tflite (tflite, 4632 bytes, 5 tensors)

sequential/normalization/truediv;sequential/normalization/Sqrt f4 [1, 7]
0	0x3e33977c	0.17538255
1	0x3f0376a3	0.513529
2	0x40f5c802	7.680665
3	0x3f49db5a	0.7885033
4	0x3d13aa37	0.036051
5	0x3d8d5701	0.0690136
6	0x406fd12f	3.7471426

Const f4 [1, 7]
0	0x41fa3936	31.277935
1	0x42133182	36.798347
2	0x3e042b96	0.12907252
3	0x41a6cc4a	20.84975
4	0x42f0d771	120.420784
5	0x42248461	41.129276
6	0x3d9e0e4a	0.07717569

sequential/dense/BiasAdd/ReadVariableOp f4 [64]
0	0x3e5fd222	0.21857503
1	0xbe13a191	-0.14417101
2	0xbd099fcd	-0.033599664
3	0xbd845704	-0.064619094
4	0xbdf5dfb2	-0.12005557
5	0x3eeabdf6	0.45848054
6	0x3e012503	0.12611775
7	0xbd36b804	-0.044609085
8	0x3e380063	0.17968898
9	0x3e02cefc	0.12774271
10	0xbd9a3f59	-0.07531614
11	0x3e6d7f86	0.23193178
12	0xbd5c0376	-0.053714238
13	0xbe1e8869	-0.15481724
14	0x3d8e684e	0.06953488
15	0x3e82daee	0.25557655
16	0xbda940d6	-0.082643196
17	0x3e6b9fd8	0.23010194
18	0x3e433a22	0.19065145
19	0x3e9a464c	0.30131757
20	0x3e5a2080	0.2130146
21	0xbe130608	-0.1435777
22	0x3e243f6d	0.1603982
23	0xbe0a0977	-0.13480173
24	0x3e1b3676	0.15157494
25	0xbdc42fc1	-0.09579421
26	0x3e6c1a7b	0.23056976
27	0x3e6fd7ad	0.23422118
28	0x3e71ee3a	0.23626032
29	0x3e58d9b7	0.21176802
30	0x3c12b871	0.008955107
31	0x3e7d543a	0.24739161
32	0x3e825ae7	0.25459978
33	0xbe495c37	-0.19664083
34	0xbe427758	-0.18990839
35	0x3e8fd6d0	0.28093576
36	0x3e4c3215	0.1994098
37	0xbd93930e	-0.07205783
38	0x3ed52b48	0.41634583
39	0x3e57e37d	0.21082874
40	0x3e997e14	0.29979002
41	0x3d89a48a	0.067208365
42	0xbdda2e6d	-0.10653386
43	0x3e3756eb	0.1790425
44	0xbd5e03bd	-0.054202784
45	0xbd379fdb	-0.044830184
46	0xbd9cc58b	-0.07654866
47	0x3e4f8561	0.20265724
48	0xbdf9a552	-0.121897355
49	0x3e9304fe	0.28714746
50	0x3ea70928	0.32624173
51	0xbe642eb6	-0.22283444
52	0x3e43764f	0.190881
53	0x3e60df41	0.21960165
54	0xbe0d9076	-0.13824639
55	0x3e48c035	0.19604571
56	0x3e82002e	0.25390762
57	0x3e88c568	0.2671311
58	0x3e86824c	0.26271284
59	0x3ebd4ca4	0.36972535
60	0x3e96ff2f	0.29491565
61	0x3e8ba304	0.2727281
62	0xbdc7c0bd	-0.09753559
63	0xbde5b418	-0.11215991

sequential/dense/MatMul f4 [64, 7]
0	0xbe0b24f1	-0.13588311
1	0xbe40929d	-0.18805929
2	0x3db05bb6	0.086112425
3	0xbe0f3470	-0.13984847
4	0x3eb0bc2c	0.34518564
5	0x3d174a50	0.036936104
6	0xbeac08dc	-0.3360051
7	0x3dc983cb	0.09839591
8	0x3ef4b4d5	0.47794214
9	0x3dfd82f8	0.12378496
10	0x3e1d40ef	0.15356801
11	0x3c9a8951	0.018864306
12	0x3e470521	0.1943555
13	0x3e4fb9f3	0.20285778
14	0x3eb099f5	0.3449246
15	0x3e9322aa	0.28737384
16	0x3c4c5e59	0.012473666
17	0x3dd19b39	0.102346845
18	0xbe509779	-0.20370282
19	0x3ea766d9	0.32695654
20	0x3d30c4f7	0.04315659
21	0x3e31a9e5	0.17349966
22	0x3b9e9779	0.0048398343
23	0x3e642133	0.2227829
24	0xbd84e08d	-0.06488142
25	0xbe74982c	-0.23886174
26	0xbd88804b	-0.06665095
27	0x3e81255a	0.2522381
28	0x3e433375	0.19062598
29	0x3c96dc33	0.018415546
30	0x3e2720e9	0.16321148
31	0x3e1d32be	0.15351388
32	0x3d505bff	0.050868984
33	0x3db2b108	0.08725172
34	0x3e8edfc8	0.27905107
35	0xbd5c89b7	-0.053842273
36	0xbf09098d	-0.535302
37	0x3cfebb50	0.031095177
38	0x3ea95373	0.3307148
39	0x3c1f1df4	0.009711731
40	0x3e357c10	0.17723107
41	0xbf2a8f0a	-0.6662451
42	0xbe910cb5	-0.28330007
43	0xbe5551d7	-0.20832
44	0xbd909e3c	-0.07061431
45	0x3e9181a9	0.28419235
46	0xbd9f1b34	-0.077688605
47	0xbe5549b0	-0.20828891
48	0x3e804383	0.25051507
49	0xbd6727ca	-0.05643443
50	0x3eb183b5	0.34670797
51	0x3eb2c58c	0.3491634
52	0xbcbb2477	-0.022844536
53	0xbc574151	-0.013138131
54	0x3d96fbc6	0.07372241
55	0xbe3df649	-0.18550982
56	0xbee3a8b3	-0.44464645
57	0xbe9d4f22	-0.30724436
58	0x3e1071c1	0.14105894
59	0x3c55a426	0.013039624
60	0xbe59e86f	-0.21280073
61	0xbe49302f	-0.19647287
62	0x3e8ca07a	0.27466184
63	0xbdfb383b	-0.122665845
64	0x3c1481d6	0.009064158
65	0x3def63e1	0.11688972
66	0xbe7f3cd7	-0.24925552
67	0xbe8e5005	-0.27795425
68	0x3e06eb7c	0.13175768
69	0x3e900bdf	0.28134057
70	0x3eb386d6	0.3506381
71	0x3ea3cd33	0.31992492
72	0x3e8058ef	0.2506785
73	0xbdbbe44b	-0.09174403
74	0xbe80f02d	-0.2518324
75	0x3e4e695b	0.20157377
76	0x3e130250	0.14356351
77	0xbe5e36d0	-0.21700597
78	0xbee36872	-0.44415623
79	0x3d94c692	0.07264437
80	0x3e404ab6	0.187785
81	0x3cdfba2a	0.02731045
82	0xbe784a5c	-0.24247116
83	0xbefde464	-0.4958831
84	0x3eadf215	0.33973756
85	0x3ee80b3c	0.4532107
86	0x3e84b6c9	0.25920704
87	0x3e283adc	0.16428703
88	0x3b952cad	0.004552445
89	0xbe43d768	-0.1912514
90	0x3d91bfb7	0.07116645
91	0x3e87150e	0.2638325
92	0x3de4bbb4	0.11168614
93	0x3e19aca1	0.15007259
94	0xbdc383a3	-0.09546592
95	0x3da88f0b	0.08230408
96	0x3efc864a	0.49321204
97	0x3d48a9a0	0.048989892
98	0x3c202cae	0.0097762775
99	0xbc5ead2b	-0.013591091
100	0x3dee202e	0.116272315
101	0x3e949e83	0.29027185
102	0xbde272d1	-0.11057056
103	0xbdce0d20	-0.10061097
104	0x3e360fd5	0.17779477
105	0x3d4d6f1b	0.050154787
106	0xbea4730c	-0.32119024
107	0xbe8b5079	-0.27209833
108	0x3e612cd4	0.21989757
109	0xbd61b5e5	-0.05510511
110	0x3e27354c	0.16328925
111	0xbefff845	-0.49994102
112	0xbd094abb	-0.033518534
113	0x3f385075	0.7199777
114	0x3c52047b	0.012818451
115	0x3e12ff1e	0.14355132
116	0x3dfa77f1	0.12229908
117	0xbd24cba9	-0.040233288
118	0x3dba9ed8	0.09112328
119	0xbe2408b6	-0.16018948
120	0xbde26b35	-0.11055604
121	0x3cc27c0e	0.023740795
122	0x3eaa6a73	0.3328434
123	0xbec75ad4	-0.38936484
124	0x3cad8082	0.021179441
125	0xbdec89f7	-0.11549752
126	0xbe72dd16	-0.2371715
127	0xbd61e3b0	-0.05514878
128	0x3e19456c	0.14967889
129	0xbe20190d	-0.15634556
130	0xbea7f884	-0.3280679
131	0xbd99cd12	-0.07509817
132	0xbed4262a	-0.41435367
133	0x3e21c621	0.15798236
134	0xbeb9cb4c	-0.36287916
135	0x3ded62ec	0.115911335
136	0xbe8befa9	-0.27331284
137	0x3c979183	0.018502003
138	0x3b983c9e	0.004645898
139	0xbecb73a4	-0.39736664
140	0xbeb9a5a2	-0.3625918
141	0xbd15744b	-0.03648786
142	0x3d147101	0.03624058
143	0x3ea675a0	0.32511616
144	0x3dcc6c40	0.099815845
145	0xbe62f143	-0.22162347
146	0x3db5f808	0.08885199
147	0x3eb9f6b9	0.36321047
148	0xbdaa0f0f	-0.083036534
149	0x3e129229	0.14313568
150	0xbe1e70fe	-0.1547279
151	0xbe270ec4	-0.16314226
152	0x3e23dfe4	0.16003376
153	0x3d774230	0.060365856
154	0xbe14ac1d	-0.14518781
155	0x3d3de8c7	0.046364572
156	0xbdbd91a6	-0.09256296
157	0x3e9de3d3	0.3083788
158	0x3e0b5058	0.13604867
159	0xbe5568eb	-0.20840804
160	0xbe8c9afb	-0.2746199
161	0x3e431269	0.19049992
162	0xbc8c4873	-0.01712439
163	0x3e8a88d8	0.27057528
164	0xbdbc7d0b	-0.092035376
165	0xbe5e2931	-0.21695401
166	0xbc17b35c	-0.009259071
167	0xbd106a90	-0.035257876
168	0xbe4b202b	-0.1983649
169	0xbb89732a	-0.004194637
170	0x3e06e829	0.131745
171	0x3e3b9e93	0.1832221
172	0xbe81ce76	-0.2535283
173	0x3e7a5b8c	0.24448985
174	0xbec97357	-0.3934581
175	0x3e0e6484	0.13905531
176	0x3ec42bf1	0.38314775
177	0xbc8593af	-0.016305773
178	0xbdb6c72f	-0.0892471
179	0xbe4942d6	-0.19654402
180	0x3eb1dfd4	0.3474108
181	0x3e5ca3d3	0.21546869
182	0xbec7cd3e	-0.39023775
183	0xbd326a60	-0.04355848
184	0xbeaf1f1e	-0.34203428
185	0xbd122f9f	-0.035689946
186	0x3e8e252b	0.27762732
187	0xbe0d0e70	-0.13775039
188	0x3d94d9c4	0.07268098
189	0x3e167484	0.14692885
190	0xbe98b9f6	-0.29829377
191	0xbec2dba0	-0.38058186
192	0x3e5ad02d	0.21368475
193	0x3e6de97d	0.232336
194	0xb9558639	-0.00020363265
195	0x3dbb9ac6	0.0916038
196	0xbd7bcaf0	-0.061472833
197	0xbee21704	-0.44158185
198	0xbead7f54	-0.33886206
199	0x3e896c07	0.2684023
200	0x3ca47be6	0.02007861
201	0x3c255e2f	0.010093256
202	0xbef3d85c	-0.47626007
203	0x3e673b40	0.22581196
204	0xbe96bfb5	-0.29443136
205	0xbe9c14bf	-0.30484578
206	0x3e97f831	0.29681543
207	0x3dd0d003	0.10195925
208	0x3c99e1cd	0.018784428
209	0xbcb85d9a	-0.02250557
210	0xbea052da	-0.3131321
211	0xbdceb0aa	-0.1009229
212	0x3dcdb08b	0.100434385
213	0x3db6d595	0.08927456
214	0xbc8818d8	-0.016613409
215	0x3e006d0a	0.12541595
216	0x3e38d24f	0.18048976
217	0xbe778413	-0.24171476
218	0xbf00292d	-0.5006283
219	0xbe5ae0ef	-0.21374868
220	0xbde57797	-0.112044506
221	0x3eb32c23	0.3499461
222	0x3e676696	0.22597727
223	0x3d8776de	0.06614469
224	0xbea5790b	-0.3231891
225	0xbcc2b21e	-0.023766574
226	0xbd043b57	-0.032283153
227	0xbe8416ff	-0.25798795
228	0xbe9b0ac1	-0.30281642
229	0x3dc22d67	0.09481316
230	0xbf084d8e	-0.5324334
231	0x3ef109be	0.47077745
232	0x3ecf9428	0.40542722
233	0x3eba8632	0.36430508
234	0xbc1047be	-0.008806167
235	0xbba10bc0	-0.004914731
236	0x3eafce5f	0.34337136
237	0x3e7c7ab0	0.24656177
238	0xbc73f864	-0.014890764
239	0x3edac5c4	0.42729008
240	0x3dc50a2f	0.09621083
241	0x3dfa71bf	0.122287266
242	0x3de77fdf	0.11303686
243	0x3ea9d451	0.33169797
244	0x3ba40815	0.0050058463
245	0xbd5f44ed	-0.054509092
246	0xbec2c7e2	-0.38043123
247	0x3dfbb2e8	0.12289983
248	0xbe08fc9b	-0.13377611
249	0xbe9ebef1	-0.31005052
250	0xbdfa515f	-0.122225516
251	0xbeeba3e0	-0.46023464
252	0x3dcbfb20	0.09960008
253	0x3c8720f6	0.01649521
254	0xbdf739a2	-0.120715395
255	0x3e5e98ca	0.21737972

sequential/dense_1/MatMul f4 [1, 64]
0	0xbeaf1bf4	-0.34201014
1	0x3e9b8f3f	0.30382726
2	0x3edc5ad3	0.43038043
3	0x3e6af4ce	0.22944948
4	0x3df689d6	0.12038009
5	0xbe9de7df	-0.30840966
6	0xbe6141ed	-0.21997805
7	0x3ed1dcbb	0.40988716
8	0xbee6faa8	-0.4511311
9	0xbe76ea47	-0.24112807
10	0x3ea08c4b	0.31357035
11	0xbe99a462	-0.30008227
12	0x3e9428ee	0.28937477
13	0x3e92752e	0.28605026
14	0xbdbfb647	-0.093609385
15	0xbed02580	-0.4065361
16	0x3ea2e938	0.31818557
17	0xbec94d82	-0.39316946
18	0xbebc16b2	-0.36736065
19	0xbe76bdf7	-0.24095903
20	0xbe750dd9	-0.23931064
21	0x3e98a285	0.29811493
22	0xbe968401	-0.29397586
23	0x3ea0cc11	0.3140569
24	0xbe59dd7b	-0.21275894
25	0x3ec54b5f	0.38534066
26	0xbe99891e	-0.29987425
27	0xbf12fb93	-0.5741512
28	0xbed83c3e	-0.4223346
29	0xbee41d56	-0.44553632
30	0xbd9ab216	-0.075534984
31	0xbee46728	-0.44609952
32	0xbee64238	-0.44972396
33	0x3e3d541c	0.18489116
34	0x3ed1df29	0.4099057
35	0xbe9d3a99	-0.3070877
36	0xbe344ac7	-0.1760665
37	0x3ec7bc40	0.3901081
38	0xbe92eb1b	-0.28694996
39	0xbe23c628	-0.1599356
40	0xbeb5503c	-0.35412776
41	0xbe36fc8d	-0.17869778
42	0x3e609de0	0.21935225
43	0xbddf0ad9	-0.10890741
44	0x3ebc56f4	0.3678509
45	0x3e849c14	0.25900328
46	0x3c987014	0.01860813
47	0xbe902721	-0.28154853
48	0x3e6bd63e	0.23030946
49	0xbee3e5ac	-0.44511163
50	0xbe8cb5bc	-0.27482402
51	0x3e85ad0e	0.26108593
52	0xbed3704b	-0.4129661
53	0xbe921c4f	-0.28537223
54	0x3e41f503	0.18941121
55	0xbeae7907	-0.34076712
56	0xbe9d6b58	-0.3074596
57	0xbed1a540	-0.40946388
58	0xbeed54a1	-0.4635363
59	0xbe6e6dc1	-0.23284055
60	0xbe97839b	-0.29592595
61	0xbeb977e3	-0.3622428
62	0x3e98eb89	0.298672
63	0x3e604753	0.21902208
