heatguard.tflite (tflite, 4896 bytes, 5 tensors)

sequential/normalization/truediv;sequential/normalization/Sqrt f4 [1, 8]
0.17538258 0.51352936 0.4694868 7.680665 0.78850317 0.036050998 0.0690136 2.0137324
00000000: 7e97 333e a976 033f 9360 f03e 02c8 f540
00000010: 58db 493f 36aa 133d 0157 8d3d fee0 0040

Const f4 [1, 8]
31.277931 36.798347 37.597027 0.12907252 20.84975 120.42078 41.129272 0.44170773
00000000: 3439 fa41 8231 1342 5b63 1642 962b 043e
00000010: 4acc a641 70d7 f042 6084 2442 8427 e23e

sequential/dense/BiasAdd/ReadVariableOp f4 [64]
0.22707744 -0.08231641 0.44351345 0.2837707 0.6137327 0.15744093 0.39985362 -0.10127773
0.025210025 -0.04511564 0.38199472 0.3082352 0.33844617 0.05738242 0.07990576 0.35322648
-0.110369764 -0.14689372 0.19156657 -0.09834529 0.40482032 0.002796128 0.21279415 0.26030576
0.36314374 -0.12771103 -0.06809388 0.29894626 -0.121926054 0.37405497 0.19839837 -0.10218023
0.4292908 0.20088269 0.044809602 0.22023587 -0.06321682 0.0023160581 0.21964648 0.22852382
-0.06316795 0.21667549 -0.09098102 0.4958994 0.2024043 0.2619221 0.044849604 0.3003313
-0.008676676 -0.000920871 0.3254956 0.28627747 -0.018587945 -0.14039509 -0.00190735 -0.08178251
0.038618345 0.40998492 0.2012938 -0.114661254 -0.069934726 0.05922779 0.27539328 0.26858842
00000000: fd86 683e 8295 a8bd 3214 e33e 654a 913e
00000010: 961d 1d3f 3238 213e 9db9 cc3e b36a cfbd
00000020: 4185 ce3c 2dcb 38bd d094 c33e 01d1 9d3e
00000030: d148 ad3e d409 6b3d a2a5 a33d 1ada b43e
00000040: 8b09 e2bd 4f6b 16be 072a 443e 4169 c9bd
00000050: 9c44 cf3e 3e3f 373b b6e6 593e cc46 853e
00000060: faed b93e aec6 02be ce74 8bbd 7c0f 993e
00000070: 5eb4 f9bd 2284 bf3e f128 4b3e de43 d1bd
00000080: 01cc db3e 31b4 4d3e 468a 373d 8385 613e
00000090: d277 81bd 02c9 173b 02eb 603e 2602 6a3e
000000a0: 335e 81bd 2ee0 5d3e 4254 babd 87e6 fd3e
000000b0: 1343 4f3e a71a 863e 38b4 373d 06c5 993e
000000c0: 9e28 0ebc 9b66 71ba 5ca7 a63e f692 923e
000000d0: bf45 98bc bbc3 0fbe 0c00 faba 977d a7bd
000000e0: 452e 1e3d 8be9 d13e f61f 4e3e 85d3 eabd
000000f0: f039 8fbd d798 723d 5900 8d3e 6c84 893e

sequential/dense/MatMul f4 [64, 8]
0.1763445 -0.18916394 -0.10268916 -0.37024605 0.20285195 -0.19838415 -0.17636898 0.29904187
0.3674454 0.07423716 0.0962669 0.25913164 0.03288941 -0.14044748 0.0047869273 -0.18067072
-0.28201282 -0.33939448 -0.67915446 0.2644951 -0.40800476 -0.35552123 -0.0057544126 0.12168944
-0.17446524 -0.13902293 -0.26932347 0.14859371 0.26187935 -0.37161908 0.20257644 0.123863265
-0.15851672 -0.20777966 -0.6815177 0.13958646 0.4966354 -0.29520813 -0.14855523 -0.40916818
0.15638317 0.016665643 0.06200596 0.14074293 0.21335061 0.15664661 -0.29421005 -0.5092787
-0.07466728 -0.43630132 -0.70183367 -0.45395163 -0.21123971 0.5501818 0.2593132 -0.011228379
-0.16925187 -0.19027947 0.006056123 -0.13190307 -0.20533268 -0.12668929 0.21630652 0.05057609
0.31335884 0.14465609 0.65511316 -0.11636273 -0.10432249 -0.04919972 0.19109704 -0.1693413
-0.16993132 0.18282282 0.1598147 0.23885249 0.13162664 -0.123861484 -0.07405634 0.18975855
-0.24232377 -0.37715015 -0.64170086 0.18241477 -0.41338998 0.2962488 -0.1691612 -0.046260394
-0.28885338 -0.13866663 -0.412571 0.1915558 0.08485619 -0.11110234 -0.07346698 -0.4732276
0.10693902 -0.008884383 -0.44076735 0.098252326 -0.2309314 -0.038509853 0.124196805 0.21540475
0.21767285 -0.1006497 0.56998324 0.04581524 -0.12347751 -0.13992158 0.024730492 -0.109870456
0.03545599 0.27086863 0.54685986 0.1116621 0.14212109 0.057207655 -0.23129037 0.002667368
0.2272069 -0.34097543 -0.38797528 0.23917806 0.33053613 0.054519463 0.033585265 -0.09890155
0.15840042 -0.01024119 -0.12656179 0.25084016 -0.062309533 -0.08839085 0.12303266 -0.0042929295
0.07156809 0.3726583 0.08520088 -0.02562093 -0.18979597 -0.18871976 0.2802027 -0.2554044
-0.11768355 -0.037305888 0.015774071 -0.4249632 0.20426324 0.03793019 -0.14234081 -0.28430453
-0.13516453 -0.00582331 0.05814776 -0.16618212 0.066536486 -0.01448956 0.10720432 -0.028905185
0.047946814 0.08821855 -0.3133126 -0.3568909 0.16016382 0.2132675 0.2952196 0.12830698
0.08655079 0.16394919 0.3511601 0.023156893 -0.10369021 -0.18220201 0.10223783 -0.104644395
-0.08395832 0.061298765 -0.048818413 -0.15685025 -0.3224998 0.18337099 -0.043355387 0.058881126
0.1557128 -0.07191086 -0.51751506 -0.21838439 0.37567148 -0.15255173 0.27798364 0.112065546
0.17008947 -0.09642051 -0.3450821 -0.102150895 0.2439447 0.018446168 0.24490556 0.26820254
0.28801492 0.41819805 -0.034670047 0.32826647 -0.22947305 0.21048784 0.07565414 -0.07477889
-0.06276244 -0.19114324 -0.12573054 0.26510626 -0.09252153 -0.0437248 -0.20702736 -0.08520266
0.14197023 -0.1189961 -0.41113144 -0.48426774 0.0762356 0.068061024 0.036298648 0.31332114
0.36028013 0.39043438 0.3186632 -0.0706192 0.08100948 0.07001277 0.32488844 -0.21851741
-0.046532568 -0.42353585 -0.41257742 0.13610047 0.07452729 0.19898719 0.012924954 0.36116385
0.16917369 -0.0040442804 -0.11149804 0.24324359 -0.05002818 0.24070816 0.17642672 -0.23893048
0.083330035 0.10266078 -0.08925133 0.0036369364 -0.07323074 0.21796995 -0.16595423 0.18166944
00000000: a793 343e 31b4 41be b24e d2bd e490 bdbe
00000010: 6cb8 4f3e 3725 4bbe 129a 34be 041c 993e
00000020: ce21 bc3e a709 983d 9527 c53d e7ac 843e
00000030: 0cb7 063d 77d1 0fbe a8db 9c3b bf01 39be
00000040: fc63 90be 1dc5 adbe 11dd 2dbf e76b 873e
00000050: 00e6 d0be e106 b6be 838f bcbb 5038 f93d
00000060: 04a7 32be 075c 0ebe c4e4 89be f328 183e
00000070: 0d15 863e db44 bebe 3370 4f3e 06ac fd3d
00000080: 3552 22be 31c4 54be f277 2ebf c1ef 0e3e
00000090: ff46 fe3e 8525 97be dd1e 18be 7e7e d1be
000000a0: e922 203e 6386 883c f6f9 7d3d ea1e 103e
000000b0: 9578 5a3e f867 203e b3a2 96be 1760 02bf
000000c0: 29eb 98bd e362 dfbe 5fab 33bf 596c e8be
000000d0: 394f 58be b7d8 0c3f b3c4 843e 3cf7 37bc
000000e0: 5d50 2dbe 9fd8 42be 7172 c63b 9911 07be
000000f0: bb42 52be d6ba 01be 757f 5d3e e028 4f3d
00000100: 9270 a03e ba20 143e 7fb5 273f 954f eebd
00000110: 08a7 d5bd a585 49bd f1ae 433e ce67 2dbe
00000120: 7a02 2ebe e835 3b3e 77a6 233e bf95 743e
00000130: 22c9 063e 17ab fdbd daaa 97bd 1150 423e
00000140: b923 78be d319 c1be 8246 24bf f0ca 3a3e
00000150: daa7 d3be ecad 973e 9838 2dbe 8a7b 3dbd
00000160: 97e4 93be a0fe 0dbe 823c d3be 3427 443e
00000170: 15c9 ad3d a089 e3bd db75 96bd e34a f2be
00000180: d802 db3d ce8f 11bc 42ac e1be 8438 c93d
00000190: 4879 6cbe 82bc 1dbd e55a fe3d 1093 5c3e
000001a0: a2e5 5e3e 6e21 cebd 6cea 113f c3a8 3b3d
000001b0: c7e1 fcbd 9a47 0fbe 9a97 ca3c c303 e1bd
000001c0: 4d3a 113d 4baf 8a3e 02ff 0b3f 19af e43d
000001d0: 3188 113e 9352 6a3d 62d7 6cbe 02cf 2e3b
000001e0: eda8 683e 5594 aebe b2a4 c6be 18eb 743e
000001f0: 083c a93e cd4f 5f3d b490 093d e58c cabd
00000200: b833 223e aaca 27bc 6a99 01be 1f6e 803e
00000210: 4838 7fbd 4306 b5bd 8cf8 fb3d b4ab 8cbb
00000220: 4a92 923d 12cd be3e cd7d ae3d fce2 d1bc
00000230: e059 42be c13f 41be ba76 8f3e 5ec4 82be
00000240: 1304 f1bd 0fce 18bd a038 813c c794 d9be
00000250: 622a 513e b05c 1b3d cac1 11be 5d90 91be
00000260: 9268 0abe 77d1 bebb 582c 6e3d a52b 2abe
00000270: 4844 883d 9f65 6dbc f08d db3d 91ca ecbc
00000280: e163 443d edab b43d 826a a0be 67ba b6be
00000290: fc01 243e cc62 5a3e 0627 973e e862 033e
000002a0: 8a41 b13d 4ce2 273e 42cb b33e 86b3 bd3c
000002b0: 885b d4bd 2a93 3abe 1162 d13d cd4f d6bd
000002c0: 57f2 abbd 6a14 7b3d d1f5 47bd 5a9d 20be
000002d0: b21e a5be 9bc5 3b3e 6b95 31bd 562d 713d
000002e0: 2d73 1f3e 0046 93bd de7b 04bf 28a0 5fbe
000002f0: 0358 c03e 8536 1cbe df53 8e3e 9f82 e53d
00000300: ef2b 2e3e 1e78 c5bd 9aae b0be 7d34 d1bd
00000310: a4cc 793e 6b1c 973c 86c8 7a3e d851 893e
00000320: b176 933e 0e1e d63e 2e02 0ebd 8b12 a83e
00000330: fcfa 6abe 208a 573e 8ff0 9a3d ad25 99bd
00000340: 9889 80bd 0ebb 43be 82bf 00be 02bc 873e
00000350: ee7b bdbd c718 33bd fbfe 53be bb7e aebd
00000360: a560 113e 3ab4 f3bd d27f d2be f1f1 f7be
00000370: 6921 9c3d 9463 8b3d e4ad 143d a16b a03e
00000380: a376 b83e 04e7 c73e d327 a33e cda0 90bd
00000390: 4ce8 a53d db62 8f3d c757 a63e 07c3 5fbe
000003a0: ef98 3ebd b1d9 d8be 593d d3be ec5d 0b3e
000003b0: c4a1 983d 4cc3 4b3e 30c3 533c 78ea b83e
000003c0: de3b 2d3e e285 84bb 1659 e4bd d914 793e
000003d0: 59ea 4cbd 337c 763e 35a9 343e 31aa 74be
000003e0: f0a8 aa3d d13f d23d 67c9 b6bd ab59 6e3b
000003f0: 00fa 95bd 8433 5f3e e8ef 29be 8e07 3a3e

sequential/dense_1/MatMul f4 [1, 64]
-0.3924121 0.15358621 -0.29752758 -0.46730193 -0.4238485 -0.19812322 -0.29155186 0.06793642
0.35400477 0.056699365 -0.21957165 -0.37325883 -0.41042328 0.4772627 0.58013 -0.40424076
0.03263132 0.117618725 -0.47196043 0.15915242 -0.28584582 0.44846135 -0.27196553 -0.55165553
-0.45399442 0.119015045 -0.01253907 -0.2706346 0.3533064 -0.17450583 -0.22896115 0.09328044
-0.24651386 -0.55725837 -0.04254168 -0.40680924 0.26481912 0.3842009 -0.41760895 -0.54314387
0.050672024 -0.31106806 0.20574479 -0.28456643 -0.55733913 -0.33460355 -0.0988245 -0.31280982
0.3232665 0.3088358 -0.39434582 -0.27700245 0.3746344 0.30705467 0.4335052 0.027656816
0.37368885 -0.29587433 -0.4996026 0.21180582 0.35951546 0.24649431 -0.3794966 -0.090742156
00000000: 3dea c8be b445 1d3e 8955 98be 3342 efbe
00000010: ac02 d9be d0e0 4abe 4946 95be 4022 8b3d
00000020: 1d40 b53e 983d 683d 64d7 60be c81b bfbe
00000030: 0023 d2be c75b f43e 6683 143f a5f8 cebe
00000040: 6ba8 053d 16e2 f03d cca4 f1be daf8 223e
00000050: 625a 92be ba9c e53e 113f 8bbe 4c39 0dbf
00000060: f571 e8be 29be f33d ac70 4dbc 9e90 8abe
00000070: 94e4 b43e a8b1 32be cb74 6abe d109 bf3d
00000080: 216e 7cbe 7ca8 0ebf 2f40 2ebd 4d49 d0be
00000090: 5f96 873e fbb5 c43e d7d0 d5be 7a0b 0bbf
000000a0: 788d 4f3d 5044 9fbe c3ae 523e b1b2 91be
000000b0: c7ad 0ebf 2851 abbe 8064 cabd 9c28 a0be
000000c0: 3083 a53e ba1f 9e3e b2e7 c9be 44d3 8dbe
000000d0: 14d0 bf3e 4536 9d3e 65f4 dd3e 8c90 e23c
000000e0: 2554 bf3e d77c 97be e9cb ffbe a0e3 583e
000000f0: 6912 b83e 0169 7c3e 614d c2be 06d7 b9bd
